Modelli Testati/ottimizzata.tflite (tflite, 266832 bytes, 7 tensors)

dense/bias f4 [64]
0	0x3e006ec9	0.12542261
1	0xbbf93ec1	-0.007606358
2	0xbb9995a3	-0.0046870275
3	0xbca2a37c	-0.019853346
4	0xbbc5153c	-0.006014494
5	0x3de82358	0.11334866
6	0x3e06b3c1	0.13154508
7	0xbbb8e291	-0.005642243
8	0xbbb6a00d	-0.0055732788
9	0xbb7e79b3	-0.0038829863
10	0x3d9f8b42	0.07790233
11	0xbd76111c	-0.06007491
12	0xbbacbb67	-0.0052713635
13	0xbca7b679	-0.020472752
14	0xbcceaf90	-0.0252302
15	0xbba5b2c6	-0.005056712
16	0xbce73e2b	-0.028227886
17	0xbd74df57	-0.059783306
18	0xbbf57a8e	-0.0074914163
19	0x3db9a34b	0.09064349
20	0xbc07d012	-0.008289354
21	0x3e16b870	0.14718795
22	0xbbaeefad	-0.00533863
23	0xbba9523c	-0.005167274
24	0xbc2cb2f5	-0.010540714
25	0xbbecca8e	-0.007226295
26	0xbc399a12	-0.011328237
27	0xbbef99f2	-0.007312053
28	0xbbabf2bd	-0.0052474425
29	0xbbbee4f2	-0.0058256323
30	0xbb969938	-0.004595902
31	0xbc2f8b9d	-0.010714439
32	0xbc3c918f	-0.011509313
33	0x3c440bbe	0.01196569
34	0x3e1215c8	0.14266121
35	0xbb845f49	-0.004039679
36	0xbbfc0e26	-0.0076921163
37	0xbd860f40	-0.065458775
38	0xbb776368	-0.003774846
39	0xbb51271a	-0.0031914175
40	0x3e1cc7ae	0.15310547
41	0xbba754c5	-0.005106541
42	0xbba8f5a1	-0.0051562344
43	0xbbbb1512	-0.005709299
44	0xbbe305ce	-0.006928182
45	0xbe014083	-0.12622266
46	0xbc3070b7	-0.010769061
47	0x3e0560a2	0.13025144
48	0xbc0877e2	-0.008329364
49	0xbbb8032a	-0.0056156116
50	0xbbafb3da	-0.005362016
51	0x3d94b469	0.07260973
52	0xbd0121fb	-0.031526547
53	0x3e296fe5	0.1654659
54	0xbd85e637	-0.065380506
55	0x3e1eb06f	0.15496992
56	0xbcde3324	-0.027123995
57	0xbcf7dd0b	-0.030256769
58	0xbbaedabe	-0.0053361347
59	0xbba76f05	-0.00510967
60	0xbc81f05a	-0.015861679
61	0xbb48c38d	-0.0030634135
62	0xbc3ee89c	-0.011652138
63	0xbb94aebf	-0.004537433

conv2d_1/bias f4 [40]
0	0xbc75f440	-0.015011847
1	0x3e08ab3b	0.13346569
2	0xbdf1102e	-0.11770664
3	0x3d4477bd	0.047965754
4	0xbcd2e9cb	-0.025746247
5	0xbc3c7d57	-0.011504493
6	0x3e00e235	0.12586291
7	0xbd7ae0c9	-0.061249528
8	0x3d2cd602	0.04219628
9	0xbc0e8f59	-0.008701169
10	0xbcf9277c	-0.030414335
11	0x3d91412d	0.070925094
12	0x3d8274aa	0.06369908
13	0xbc37e67e	-0.011224387
14	0xbc8feab3	-0.017567968
15	0xbd29a3c3	-0.04141594
16	0xbcd56fdf	-0.02605432
17	0x3c9f9bf2	0.01948354
18	0xbbc4b672	-0.0060031945
19	0xbbd09a24	-0.0063660312
20	0x3d5b51b6	0.053544722
21	0x3c45967a	0.012059802
22	0xbce90cf3	-0.028448557
23	0x3dca85df	0.09888815
24	0xbc3419d2	-0.010992484
25	0xbbd54897	-0.0065088975
26	0xbc377828	-0.011198081
27	0xbc2b601b	-0.010459925
28	0xbcca8839	-0.02472316
29	0xbc663edd	-0.014053074
30	0xbd64cff6	-0.05586239
31	0xbcacaf66	-0.02107973
32	0x3d76e483	0.06027652
33	0xbce0e3ee	-0.027452435
34	0xbe2c7551	-0.16841628
35	0xbbd60db9	-0.0065323976
36	0xbd4c74da	-0.049916126
37	0xbd64e4a9	-0.05588213
38	0xbda3a749	-0.079908915
39	0xbb131a22	-0.0022445996

conv2d/bias f4 [30]
0	0xbea60632	-0.32426602
1	0xbce673c7	-0.028131379
2	0xbd4cef26	-0.050032757
3	0xbd491a97	-0.049097624
4	0x3e9c2263	0.30494985
5	0x3eb22b5a	0.347987
6	0x3c9a9c22	0.018873278
7	0x3c2b3991	0.010450737
8	0xbd2d3639	-0.04228804
9	0xbc00d9d9	-0.007864439
10	0xbca65158	-0.02030246
11	0xbc01c03f	-0.00791937
12	0xbc820849	-0.015873091
13	0xbd50881b	-0.05091105
14	0xbc6576db	-0.014005388
15	0xbd67bda4	-0.05657734
16	0xbd05304f	-0.032516774
17	0xbd0f6304	-0.035006538
18	0xbc6804d2	-0.0141613055
19	0xbc33ed35	-0.0109818475
20	0xbbe2b020	-0.0069179684
21	0xbdb4f624	-0.0883601
22	0xbd92b213	-0.07162871
23	0xbce9bdfe	-0.028532978
24	0x3e2712cd	0.16315766
25	0x3e6c30f4	0.23065549
26	0x3e67bc1a	0.22630349
27	0xbcf033eb	-0.029321631
28	0x3c6d81b6	0.0144962575
29	0x3bf6fac1	0.0075372164

model/dense/MatMul i1 [64, 3960] scale=0.020002449 zero_point=0
0	0x00	0.0
1	0xfa	-0.1200147
2	0x04	0.080009796
3	0xf3	-0.26003185
4	0xf7	-0.18002205
5	0x00	0.0
6	0xfc	-0.080009796
7	0xfb	-0.10001224
8	0x06	0.1200147
9	0xff	-0.020002449
10	0xff	-0.020002449
11	0xff	-0.020002449
12	0x06	0.1200147
13	0xfe	-0.040004898
14	0x00	0.0
15	0xff	-0.020002449
16	0x00	0.0
17	0x01	0.020002449
18	0x01	0.020002449
19	0x02	0.040004898
20	0x0a	0.20002449
21	0xfa	-0.1200147
22	0xff	-0.020002449
23	0x02	0.040004898
24	0x06	0.1200147
25	0x02	0.040004898
26	0xff	-0.020002449
27	0xff	-0.020002449
28	0x00	0.0
29	0x00	0.0
30	0xff	-0.020002449
31	0xfb	-0.10001224
32	0x07	0.14001714
33	0x01	0.020002449
34	0x03	0.06000735
35	0xff	-0.020002449
36	0x01	0.020002449
37	0x00	0.0
38	0xfc	-0.080009796
39	0x06	0.1200147
40	0xfe	-0.040004898
41	0xfb	-0.10001224
42	0xfa	-0.1200147
43	0xfa	-0.1200147
44	0xf7	-0.18002205
45	0x01	0.020002449
46	0x02	0.040004898
47	0xfa	-0.1200147
48	0x05	0.10001224
49	0x01	0.020002449
50	0x02	0.040004898
51	0xfe	-0.040004898
52	0x05	0.10001224
53	0xfe	-0.040004898
54	0x01	0.020002449
55	0xfe	-0.040004898
56	0x01	0.020002449
57	0x03	0.06000735
58	0x02	0.040004898
59	0xfe	-0.040004898
60	0x0b	0.22002694
61	0xf8	-0.16001959
62	0x00	0.0
63	0xff	-0.020002449
64	0x04	0.080009796
65	0xff	-0.020002449
66	0xff	-0.020002449
67	0xfe	-0.040004898
68	0x01	0.020002449
69	0xfe	-0.040004898
70	0xff	-0.020002449
71	0xf8	-0.16001959
72	0x0d	0.26003185
73	0x00	0.0
74	0x00	0.0
75	0xfe	-0.040004898
76	0xff	-0.020002449
77	0xff	-0.020002449
78	0xf3	-0.26003185
79	0x03	0.06000735
80	0x00	0.0
81	0xfb	-0.10001224
82	0xfd	-0.06000735
83	0xf8	-0.16001959
84	0xfb	-0.10001224
85	0x01	0.020002449
86	0xf8	-0.16001959
87	0xfa	-0.1200147
88	0x03	0.06000735
89	0x00	0.0
90	0x01	0.020002449
91	0x01	0.020002449
92	0x09	0.18002205
93	0x01	0.020002449
94	0x01	0.020002449
95	0xff	-0.020002449
96	0x00	0.0
97	0x02	0.040004898
98	0x00	0.0
99	0x01	0.020002449
100	0x0b	0.22002694
101	0xfe	-0.040004898
102	0x01	0.020002449
103	0x03	0.06000735
104	0x06	0.1200147
105	0x01	0.020002449
106	0x01	0.020002449
107	0xfe	-0.040004898
108	0xff	-0.020002449
109	0x00	0.0
110	0x01	0.020002449
111	0xfe	-0.040004898
112	0x08	0.16001959
113	0x01	0.020002449
114	0xfe	-0.040004898
115	0x00	0.0
116	0xfe	-0.040004898
117	0xff	-0.020002449
118	0xf9	-0.14001714
119	0x05	0.10001224
120	0x00	0.0
121	0xff	-0.020002449
122	0xfa	-0.1200147
123	0xf9	-0.14001714
124	0xf5	-0.22002694
125	0x01	0.020002449
126	0xf9	-0.14001714
127	0xf4	-0.2400294
128	0x03	0.06000735
129	0x00	0.0
130	0x00	0.0
131	0xfe	-0.040004898
132	0x09	0.18002205
133	0xfe	-0.040004898
134	0x00	0.0
135	0xfe	-0.040004898
136	0xff	-0.020002449
137	0x02	0.040004898
138	0x02	0.040004898
139	0x00	0.0
140	0x09	0.18002205
141	0xf7	-0.18002205
142	0xfe	-0.040004898
143	0x03	0.06000735
144	0x07	0.14001714
145	0x00	0.0
146	0x01	0.020002449
147	0x02	0.040004898
148	0xff	-0.020002449
149	0xff	-0.020002449
150	0x02	0.040004898
151	0xf5	-0.22002694
152	0x0a	0.20002449
153	0x01	0.020002449
154	0x04	0.080009796
155	0xfe	-0.040004898
156	0xfe	-0.040004898
157	0x00	0.0
158	0xf4	-0.2400294
159	0x04	0.080009796
160	0xff	-0.020002449
161	0xfe	-0.040004898
162	0xff	-0.020002449
163	0xfa	-0.1200147
164	0xfe	-0.040004898
165	0x01	0.020002449
166	0xf9	-0.14001714
167	0xfb	-0.10001224
168	0x04	0.080009796
169	0x01	0.020002449
170	0xff	-0.020002449
171	0x04	0.080009796
172	0x07	0.14001714
173	0xfe	-0.040004898
174	0x02	0.040004898
175	0x01	0.020002449
176	0x02	0.040004898
177	0x04	0.080009796
178	0x00	0.0
179	0xff	-0.020002449
180	0x0b	0.22002694
181	0x00	0.0
182	0xff	-0.020002449
183	0x03	0.06000735
184	0x06	0.1200147
185	0x01	0.020002449
186	0x00	0.0
187	0x01	0.020002449
188	0x00	0.0
189	0x02	0.040004898
190	0x01	0.020002449
191	0xff	-0.020002449
192	0xfd	-0.06000735
193	0x00	0.0
194	0x02	0.040004898
195	0x01	0.020002449
196	0x00	0.0
197	0x00	0.0
198	0xfd	-0.06000735
199	0x05	0.10001224
200	0xfe	-0.040004898
201	0xff	-0.020002449
202	0xfd	-0.06000735
203	0xf9	-0.14001714
204	0xf1	-0.30003673
205	0xff	-0.020002449
206	0xf6	-0.20002449
207	0xf5	-0.22002694
208	0x04	0.080009796
209	0x01	0.020002449
210	0x00	0.0
211	0x02	0.040004898
212	0x0a	0.20002449
213	0x01	0.020002449
214	0xff	-0.020002449
215	0xfe	-0.040004898
216	0x02	0.040004898
217	0x03	0.06000735
218	0xff	-0.020002449
219	0xff	-0.020002449
220	0x0f	0.30003673
221	0xfe	-0.040004898
222	0xff	-0.020002449
223	0x03	0.06000735
224	0x05	0.10001224
225	0xff	-0.020002449
226	0x02	0.040004898
227	0x01	0.020002449
228	0xfe	-0.040004898
229	0xff	-0.020002449
230	0x01	0.020002449
231	0xf7	-0.18002205
232	0x00	0.0
233	0x00	0.0
234	0xfe	-0.040004898
235	0x00	0.0
236	0x01	0.020002449
237	0xff	-0.020002449
238	0xf4	-0.2400294
239	0x04	0.080009796
240	0x01	0.020002449
241	0x01	0.020002449
242	0xf9	-0.14001714
243	0xf7	-0.18002205
244	0xf9	-0.14001714
245	0xff	-0.020002449
246	0xf6	-0.20002449
247	0xfb	-0.10001224
248	0x02	0.040004898
249	0x01	0.020002449
250	0xff	-0.020002449
251	0x04	0.080009796
252	0x07	0.14001714
253	0x01	0.020002449
254	0x01	0.020002449
255	0xfe	-0.040004898

model/dense_1/MatMul f4 [1, 64]
0	0x3e92efae	0.28698486
1	0x3dc6c2d1	0.09705127
2	0xbe354e8c	-0.17705745
3	0xbdadb36d	-0.084814884
4	0xbe8a76d2	-0.27043778
5	0x3ecf995c	0.4054669
6	0x3ec808e9	0.39069298
7	0xbd890715	-0.06690804
8	0x3d3c197f	0.045922752
9	0xbe6991ac	-0.22809476
10	0x3e453ed6	0.19262251
11	0xbd9222f7	-0.07135575
12	0x3db396be	0.08768986
13	0xbe34cc50	-0.17656064
14	0xbe4e2f8f	-0.2013533
15	0xbe1c0fd4	-0.15240413
16	0xbe6e6453	-0.23280458
17	0xbe925484	-0.28580105
18	0x3df8277f	0.12116908
19	0xbf0720b3	-0.5278427
20	0xbab9b4b6	-0.0014168236
21	0x3df22497	0.11823385
22	0x3e8ad489	0.27115276
23	0x3e8105ae	0.25199646
24	0xbe43d897	-0.19125591
25	0x3c5c3354	0.013439972
26	0xbd5d20c0	-0.05398631
27	0x3c8bd4d2	0.017069254
28	0x3e42aa92	0.1901038
29	0x3e0d838f	0.13819717
30	0xbe26318d	-0.1622984
31	0xbe4c17ad	-0.19930907
32	0x3cc1c869	0.023655133
33	0x3eca67ec	0.3953241
34	0x3e7dcad2	0.24784401
35	0xbd77011d	-0.060303796
36	0xbe341aaa	-0.17588297
37	0xbcd72c9d	-0.02626639
38	0xbe43bad1	-0.19114234
39	0xbe77e7f8	-0.24209583
40	0x3d21f146	0.039536737
41	0x3dca4ba1	0.09877706
42	0x3e8dc1f6	0.27687043
43	0x3e089391	0.13337542
44	0xbe755140	-0.23956776
45	0xbec63b74	-0.38717234
46	0xbcf39884	-0.029735811
47	0x3e99f179	0.30067042
48	0xbda2dbe6	-0.079520985
49	0xbe02a4e9	-0.1275822
50	0xbe877e49	-0.26463535
51	0x3e696df3	0.22795849
52	0xbe6dd8d5	-0.23227246
53	0x3e94d34a	0.2906745
54	0xbeb2e5a6	-0.34940833
55	0x3e34fa57	0.17673622
56	0xbc8cffba	-0.017211784
57	0x3e09a37a	0.13441268
58	0x3d828f89	0.063750334
59	0x3e58b328	0.21162093
60	0xbbbf9265	-0.005846309
61	0xbe786fee	-0.24261448
62	0xbcf91c08	-0.030408874
63	0x3dd3b624	0.10337475

model/conv2d/Conv2D f4 [30, 10, 1, 1]
0	0x3c2d6950	0.0105841905
1	0xbd90c461	-0.07068706
2	0xbc6cbd90	-0.014449492
3	0x3ca726d8	0.020404264
4	0x3da2902c	0.07937655
5	0x3de6dc72	0.11272515
6	0x3d44dec4	0.04806401
7	0x3d8992dc	0.06717464
8	0xbd98ff95	-0.074706234
9	0xbde6b059	-0.112641044
10	0xbd1a4ac4	-0.03766896
11	0xbd5de126	-0.054169796
12	0xbd799324	-0.06093134
13	0x3d83c1d6	0.06433456
14	0x3b20a5b6	0.0024512834
15	0x3d68b244	0.056810632
16	0xbcc89744	-0.024486192
17	0xbda2456a	-0.07923396
18	0x3ceddc98	0.029035851
19	0xbd7823c0	-0.06058097
20	0x3cba10b0	0.022713035
21	0xbd5026d6	-0.050818287
22	0x3df47dca	0.11938055
23	0x3d850638	0.06495327
24	0xbea7806e	-0.32715172
25	0x3ddceb88	0.107871115
26	0x3dbf3b50	0.09337485
27	0x3ca63e38	0.02029334
28	0xbd326ee6	-0.043562792
29	0x3d8c30b2	0.068452254
30	0xbd91fa38	-0.071278036
31	0xbdaeeeba	-0.08541627
32	0xbd1b677a	-0.03794048
33	0x3c8116f8	0.015758023
34	0x3d917847	0.07103019
35	0xbdb7f076	-0.08981411
36	0xbdb9db32	-0.09075011
37	0x3c178110	0.0092470795
38	0xbcfd7ddc	-0.030943803
39	0xbd8d97e4	-0.069137365
40	0xbc9eca74	-0.019383647
41	0x3db949b4	0.09047261
42	0xbcf05518	-0.02933745
43	0x3dfd9062	0.123810545
44	0xbdcd25f9	-0.10017008
45	0xbd45e8fc	-0.048317894
46	0xbdd316e4	-0.103071004
47	0x3caed3b8	0.02134119
48	0xbe058ae6	-0.13041267
49	0xbdb45210	-0.08804715
50	0x3de77706	0.11301999
51	0x3cd26e00	0.025687218
52	0x3d87fc8e	0.06639968
53	0x3da48934	0.08033982
54	0xbda9be9b	-0.08288308
55	0x3db57ce6	0.08861713
56	0xbdc7db50	-0.097586274
57	0x3be689e0	0.007035479
58	0xbd96010f	-0.07324421
59	0xbdc56ee7	-0.096402936
60	0x3b03ab80	0.0020091236
61	0xbd0f2652	-0.034948654
62	0x3d10b6d0	0.035330594
63	0xbd61c888	-0.055122882
64	0xbecfcbf6	-0.40585297
65	0x3da3362a	0.07969315
66	0x3dffdcfe	0.12493323
67	0x3db7695a	0.08955641
68	0xbd6a446e	-0.057194166
69	0x3df2148a	0.11820324
70	0xbd20e736	-0.039283
71	0x3dc3a5ba	0.09553094
72	0x3db2191c	0.086961955
73	0x3d7742e4	0.060366526
74	0xbd4d548b	-0.050129455
75	0x3d82dc3c	0.063896626
76	0xbe0dc7fe	-0.13845822
77	0x3d73d2ec	0.059527323
78	0x3dc903b6	0.09815161
79	0x3dec96c6	0.11552195
80	0x3d9ee672	0.07758798
81	0xbd93eaba	-0.07222505
82	0x3db87c8e	0.09008132
83	0xbdb0bacd	-0.086293794
84	0x3b6fc45f	0.0036585552
85	0x3dc85542	0.09781887
86	0x3dfd9c26	0.123832986
87	0xbdf63c88	-0.12023264
88	0xbde094c2	-0.10965873
89	0x3dc702c6	0.09717326
90	0x3cc26f60	0.023734748
91	0x3db78ef0	0.0896281
92	0x3dd735cc	0.10508308
93	0x3b61abc0	0.0034434646
94	0xbc1c7c10	-0.009551063
95	0xbd940c6e	-0.07228933
96	0xbdff1e63	-0.12456968
97	0xbd150a04	-0.036386505
98	0xbdda703c	-0.10665938
99	0xbd4e8402	-0.05041886
100	0x3d992e62	0.0747955
101	0xbdc053f5	-0.093910135
102	0x3d2c3ee4	0.042052165
103	0x38e1b800	0.00010763109
104	0xbaa0b91f	-0.0012262202
105	0xbe0df8c1	-0.13864423
106	0xbc755010	-0.014972702
107	0xbcd31a18	-0.025769278
108	0xbd8febb2	-0.07027377
109	0x3d9a0d08	0.07522017
110	0xbb98a740	-0.0046586096
111	0xbd84a52e	-0.06476818
112	0xbce5e1c8	-0.028061762
113	0x3a15c400	0.0005713105
114	0xbc133657	-0.008985124
115	0xbdefcea2	-0.11709334
116	0x3c3b7690	0.011441842
117	0x3e012255	0.12610753
118	0x3dccc098	0.09997672
119	0x3dd19d0e	0.10235034
120	0x3cc73170	0.024315566
121	0xbcc69858	-0.024242565
122	0x3e0470a9	0.12933601
123	0x3a647000	0.0008714199
124	0x3a778d5e	0.00094433676
125	0xbdc66988	-0.09688097
126	0x3c2cee70	0.010554895
127	0xbc6ae9f8	-0.014338009
128	0xbc2db160	-0.0106013715
129	0x3e0a5053	0.13507204
130	0xbe07fe2a	-0.1328055
131	0x3ccfe398	0.02537708
132	0xbd06a6ce	-0.03287392
133	0x3d03bb34	0.032160953
134	0x3b84e308	0.0040553845
135	0xbe0d8094	-0.1381858
136	0xbdd6217c	-0.104556054
137	0xbdaaddc0	-0.08343077
138	0x3ceaa160	0.028641403
139	0xbc4e8d80	-0.012606978
140	0xbc92aa5c	-0.0179035
141	0x3d2503ac	0.040286705
142	0x3d48ff68	0.0490717
143	0x3c5e8030	0.013580367
144	0xbcb7e601	-0.022448542
145	0x3d9b0cd2	0.07570805
146	0x3e07b4d7	0.13252579
147	0x3e08d195	0.13361199
148	0x3c45bc90	0.012068883
149	0xbdc16c02	-0.09444429
150	0x3e0842b5	0.13306697
151	0xbd5192d8	-0.05116543
152	0x3e01fc01	0.12693788
153	0xbdf7bd9a	-0.120967105
154	0xbe749265	-0.2388397
155	0x3c8d1518	0.017221972
156	0x3da19628	0.07889968
157	0x3def12b2	0.11673488
158	0x3dcb69c2	0.09932281
159	0xbd214268	-0.03936997
160	0x3e091131	0.13385464
161	0x3e0c5c27	0.13707028
162	0xbdc425ea	-0.09577544
163	0x3e072057	0.1319593
164	0xbaef66cf	-0.0018264892
165	0x3df54f4e	0.11978017
166	0x3d76f528	0.060292393
167	0x3b175580	0.0023091733
168	0x3dc6b920	0.097032785
169	0x3d505248	0.05085972
170	0xbdc97338	-0.09836429
171	0x3d939aec	0.072072834
172	0xbd2be78e	-0.041968875
173	0x3dff29a2	0.12459113
174	0x3d34a09f	0.044098493
175	0xbd92e49f	-0.07172512
176	0xbb659040	-0.0035028607
177	0x3d802082	0.062562004
178	0x3ba72140	0.0051003993
179	0x3db9c7e0	0.09071326
180	0x3e0cea0f	0.13761161
181	0xbccb4d6c	-0.024817191
182	0xbe016b88	-0.12638676
183	0xbc771bc0	-0.0150823
184	0xbc59b947	-0.0132888025
185	0x3cf28030	0.02960214
186	0x3c936878	0.01799415
187	0xbe0dac22	-0.13835195
188	0x3c2c08a0	0.010500103
189	0xbd2050fe	-0.03913974
190	0x3da05510	0.078287244
191	0xbda8fab3	-0.08250942
192	0x3dcb9012	0.099395886
193	0xbcab4f54	-0.02091185
194	0xbbbd6f0f	-0.0057810615
195	0xbca26600	-0.019824028
196	0xbdf61c10	-0.12017071
197	0x3d0f1648	0.03493336
198	0xbd72a2ba	-0.05923722
199	0x3cdedcc0	0.027204871
200	0xbd9f7b4a	-0.077871874
201	0xbc7ccd50	-0.01542981
202	0xbd7a9986	-0.061181568
203	0xbd7b0d7a	-0.06129215
204	0xba0f150f	-0.0005458155
205	0x3def497e	0.116839394
206	0x3de4dd42	0.11175014
207	0xbd58804c	-0.05285673
208	0xbd351008	-0.04420474
209	0x3cefc850	0.029270321
210	0xbb48b6c0	-0.0030626506
211	0xbe07c7ac	-0.13259763
212	0x3d2889f8	0.041147202
213	0x3d686eb0	0.056746185
214	0x3e063ec0	0.13109875
215	0x3da58b36	0.08083193
216	0x3d88b39a	0.06674881
217	0x3d116fb4	0.03550692
218	0x3da4adc2	0.08040954
219	0xbddce572	-0.10785951
220	0x3d17b828	0.03704086
221	0x3e08d451	0.13362242
222	0xbc312fa0	-0.010814577
223	0xbdb6ecca	-0.08931883
224	0xbe9ff323	-0.31240186
225	0xbd2e147e	-0.04250001
226	0x3cb87178	0.022515044
227	0xbdf0e504	-0.11762431
228	0x3d43c840	0.047798395
229	0x3d8bd290	0.06827271
230	0x3c9147d0	0.017734438
231	0x3dc97588	0.098368704
232	0xbd51b75e	-0.051200263
233	0x3b614c80	0.0034377873
234	0xbc9df083	-0.019279724
235	0x3d8088d4	0.06276098
236	0x3ca70b00	0.020390987
237	0x3d9f55b6	0.0778002
238	0xbe0de2d5	-0.13856061
239	0x3d81abf6	0.06331627
240	0xbcdb9474	-0.026804186
241	0xbe00afcb	-0.1256706
242	0xbd1eef62	-0.038802512
243	0x3da00e40	0.07815218
244	0xbe2d1d49	-0.16905703
245	0x3daaa5c0	0.083323956
246	0x3dc95904	0.098314315
247	0xbce04154	-0.0273749
248	0x3e02ec7d	0.12785526
249	0xbbba6c00	-0.005689144
250	0xbce6e6a4	-0.02818615
251	0x3e06ad71	0.131521
252	0x3d5940e0	0.053040385
253	0xbd717576	-0.05894991
254	0xbe80b351	-0.25136808
255	0x3ddeee36	0.10885279

model/conv2d_1/Conv2D i1 [40, 6, 1, 30]
0	0xd7	-41
1	0xca	-54
2	0x5c	92
3	0x1e	30
4	0xfc	-4
5	0xe8	-24
6	0x91	-111
7	0xef	-17
8	0x5c	92
9	0x58	88
10	0x53	83
11	0x94	-108
12	0x1e	30
13	0x57	87
14	0x92	-110
15	0xd0	-48
16	0x4c	76
17	0x9f	-97
18	0xb5	-75
19	0xa2	-94
20	0x23	35
21	0x74	116
22	0xf1	-15
23	0xd4	-44
24	0x72	114
25	0x34	52
26	0xff	-1
27	0x90	-112
28	0xe9	-23
29	0xd9	-39
30	0xdf	-33
31	0x1d	29
32	0x0f	15
33	0x24	36
34	0x3c	60
35	0xe3	-29
36	0xb9	-71
37	0x10	16
38	0xa5	-91
39	0xc0	-64
40	0x4b	75
41	0x20	32
42	0xea	-22
43	0xdc	-36
44	0xd0	-48
45	0x57	87
46	0x93	-109
47	0x30	48
48	0x3c	60
49	0xff	-1
50	0xcb	-53
51	0x1d	29
52	0x02	2
53	0xfd	-3
54	0xa9	-87
55	0xa6	-90
56	0x3c	60
57	0xac	-84
58	0x3e	62
59	0xfe	-2
60	0x37	55
61	0x09	9
62	0x5f	95
63	0xad	-83
64	0xe9	-23
65	0xb1	-79
66	0x35	53
67	0xe0	-32
68	0xd5	-43
69	0x71	113
70	0xd4	-44
71	0x16	22
72	0xbc	-68
73	0x6c	108
74	0x81	-127
75	0x42	66
76	0x22	34
77	0x3f	63
78	0xe3	-29
79	0x3e	62
80	0x9d	-99
81	0x13	19
82	0xf6	-10
83	0x1a	26
84	0xbd	-67
85	0x16	22
86	0x34	52
87	0x9a	-102
88	0xe9	-23
89	0xd8	-40
90	0xc2	-62
91	0x90	-112
92	0x9d	-99
93	0x25	37
94	0x99	-103
95	0xc0	-64
96	0xf9	-7
97	0x9b	-101
98	0x38	56
99	0x8f	-113
100	0x00	0
101	0xe8	-24
102	0x55	85
103	0xd6	-42
104	0x06	6
105	0x9e	-98
106	0xe0	-32
107	0xee	-18
108	0x1d	29
109	0xf6	-10
110	0x16	22
111	0x98	-104
112	0x1a	26
113	0x43	67
114	0x05	5
115	0xf6	-10
116	0xc5	-59
117	0x54	84
118	0x11	17
119	0x2e	46
120	0x71	113
121	0xb8	-72
122	0xc5	-59
123	0xd0	-48
124	0xd9	-39
125	0xf5	-11
126	0x49	73
127	0x1f	31
128	0xc0	-64
129	0x58	88
130	0xf6	-10
131	0xbb	-69
132	0x3a	58
133	0x0d	13
134	0xad	-83
135	0x22	34
136	0xf6	-10
137	0x51	81
138	0xbd	-67
139	0x45	69
140	0x90	-112
141	0xab	-85
142	0x4b	75
143	0xf2	-14
144	0x53	83
145	0xae	-82
146	0x60	96
147	0xbf	-65
148	0x03	3
149	0xad	-83
150	0x08	8
151	0x67	103
152	0xd3	-45
153	0x5b	91
154	0x71	113
155	0xe1	-31
156	0x52	82
157	0x3b	59
158	0x00	0
159	0x70	112
160	0x1b	27
161	0x96	-106
162	0x4d	77
163	0x46	70
164	0xc9	-55
165	0xe1	-31
166	0xf8	-8
167	0xe4	-28
168	0x51	81
169	0xa4	-92
170	0xa9	-87
171	0x4f	79
172	0x37	55
173	0x40	64
174	0x4c	76
175	0x55	85
176	0x62	98
177	0x2f	47
178	0x98	-104
179	0xe5	-27
180	0xf7	-9
181	0xf4	-12
182	0xf8	-8
183	0x07	7
184	0xfd	-3
185	0x06	6
186	0xf6	-10
187	0xf6	-10
188	0xfe	-2
189	0xf4	-12
190	0x02	2
191	0xfc	-4
192	0x01	1
193	0xfd	-3
194	0x09	9
195	0xfa	-6
196	0x02	2
197	0xf8	-8
198	0x08	8
199	0x03	3
200	0xf5	-11
201	0xfc	-4
202	0x09	9
203	0x09	9
204	0x08	8
205	0x08	8
206	0xfe	-2
207	0x08	8
208	0xff	-1
209	0xf5	-11
210	0xfc	-4
211	0x06	6
212	0xf4	-12
213	0xf6	-10
214	0x08	8
215	0xfb	-5
216	0x00	0
217	0x00	0
218	0x0a	10
219	0x09	9
220	0x05	5
221	0xf6	-10
222	0x06	6
223	0x09	9
224	0x0a	10
225	0x09	9
226	0xff	-1
227	0xf5	-11
228	0x07	7
229	0x05	5
230	0x0c	12
231	0xf4	-12
232	0xf6	-10
233	0x04	4
234	0x0b	11
235	0xfb	-5
236	0x09	9
237	0x0c	12
238	0x03	3
239	0xf7	-9
240	0x9a	-102
241	0xf9	-7
242	0x04	4
243	0x01	1
244	0x98	-104
245	0x81	-127
246	0x00	0
247	0x0b	11
248	0x02	2
249	0x01	1
250	0x00	0
251	0x04	4
252	0x03	3
253	0x01	1
254	0xfc	-4
255	0xf5	-11
