Modelli Testati/quantizzata.tflite (tflite, 267688 bytes, 4 tensors)

model/dense_1/MatMul i1 [1, 64] scale=0.0041562417 zero_point=0
0	0x45	0.2867807
1	0x17	0.09559356
2	0xd5	-0.17871839
3	0xec	-0.08312483
4	0xbf	-0.2701557
5	0x62	0.40731168
6	0x5e	0.39068672
7	0xf0	-0.06649987
8	0x0b	0.04571866
9	0xc9	-0.22859329
10	0x2e	0.19118711
11	0xef	-0.070656106
12	0x15	0.08728108
13	0xd6	-0.17456216
14	0xd0	-0.1994996
15	0xdb	-0.15378094
16	0xc8	-0.23274954
17	0xbb	-0.2867807
18	0x1d	0.12053101
19	0x81	-0.5278427
20	0x00	0.0
21	0x1c	0.11637477
22	0x41	0.2701557
23	0x3d	0.25353074
24	0xd2	-0.19118711
25	0x03	0.012468725
26	0xf3	-0.05403114
27	0x04	0.016624967
28	0x2e	0.19118711
29	0x21	0.13715598
30	0xd9	-0.16209343
31	0xd0	-0.1994996
32	0x06	0.02493745
33	0x5f	0.39484295
34	0x3c	0.2493745
35	0xf1	-0.062343623
36	0xd6	-0.17456216
37	0xfa	-0.02493745
38	0xd2	-0.19118711
39	0xc6	-0.24106202
40	0x0a	0.041562416
41	0x18	0.0997498
42	0x43	0.2784682
43	0x20	0.13299973
44	0xc6	-0.24106202
45	0xa3	-0.3865305
46	0xf9	-0.029093692
47	0x48	0.2992494
48	0xed	-0.07896859
49	0xe1	-0.12884349
50	0xc0	-0.26599947
51	0x37	0.22859329
52	0xc8	-0.23274954
53	0x46	0.29093692
54	0xac	-0.3491243
55	0x2b	0.17871839
56	0xfc	-0.016624967
57	0x20	0.13299973
58	0x0f	0.062343623
59	0x33	0.21196832
60	0xff	-0.0041562417
61	0xc6	-0.24106202
62	0xf9	-0.029093692
63	0x19	0.10390604

model/dense/MatMul i1 [64, 3960] scale=0.020002449 zero_point=0
0	0x00	0.0
1	0xfa	-0.1200147
2	0x04	0.080009796
3	0xf3	-0.26003185
4	0xf7	-0.18002205
5	0x00	0.0
6	0xfc	-0.080009796
7	0xfb	-0.10001224
8	0x06	0.1200147
9	0xff	-0.020002449
10	0xff	-0.020002449
11	0xff	-0.020002449
12	0x06	0.1200147
13	0xfe	-0.040004898
14	0x00	0.0
15	0xff	-0.020002449
16	0x00	0.0
17	0x01	0.020002449
18	0x01	0.020002449
19	0x02	0.040004898
20	0x0a	0.20002449
21	0xfa	-0.1200147
22	0xff	-0.020002449
23	0x02	0.040004898
24	0x06	0.1200147
25	0x02	0.040004898
26	0xff	-0.020002449
27	0xff	-0.020002449
28	0x00	0.0
29	0x00	0.0
30	0xff	-0.020002449
31	0xfb	-0.10001224
32	0x07	0.14001714
33	0x01	0.020002449
34	0x03	0.06000735
35	0xff	-0.020002449
36	0x01	0.020002449
37	0x00	0.0
38	0xfc	-0.080009796
39	0x06	0.1200147
40	0xfe	-0.040004898
41	0xfb	-0.10001224
42	0xfa	-0.1200147
43	0xfa	-0.1200147
44	0xf7	-0.18002205
45	0x01	0.020002449
46	0x02	0.040004898
47	0xfa	-0.1200147
48	0x05	0.10001224
49	0x01	0.020002449
50	0x02	0.040004898
51	0xfe	-0.040004898
52	0x05	0.10001224
53	0xfe	-0.040004898
54	0x01	0.020002449
55	0xfe	-0.040004898
56	0x01	0.020002449
57	0x03	0.06000735
58	0x02	0.040004898
59	0xfe	-0.040004898
60	0x0b	0.22002694
61	0xf8	-0.16001959
62	0x00	0.0
63	0xff	-0.020002449
64	0x04	0.080009796
65	0xff	-0.020002449
66	0xff	-0.020002449
67	0xfe	-0.040004898
68	0x01	0.020002449
69	0xfe	-0.040004898
70	0xff	-0.020002449
71	0xf8	-0.16001959
72	0x0d	0.26003185
73	0x00	0.0
74	0x00	0.0
75	0xfe	-0.040004898
76	0xff	-0.020002449
77	0xff	-0.020002449
78	0xf3	-0.26003185
79	0x03	0.06000735
80	0x00	0.0
81	0xfb	-0.10001224
82	0xfd	-0.06000735
83	0xf8	-0.16001959
84	0xfb	-0.10001224
85	0x01	0.020002449
86	0xf8	-0.16001959
87	0xfa	-0.1200147
88	0x03	0.06000735
89	0x00	0.0
90	0x01	0.020002449
91	0x01	0.020002449
92	0x09	0.18002205
93	0x01	0.020002449
94	0x01	0.020002449
95	0xff	-0.020002449
96	0x00	0.0
97	0x02	0.040004898
98	0x00	0.0
99	0x01	0.020002449
100	0x0b	0.22002694
101	0xfe	-0.040004898
102	0x01	0.020002449
103	0x03	0.06000735
104	0x06	0.1200147
105	0x01	0.020002449
106	0x01	0.020002449
107	0xfe	-0.040004898
108	0xff	-0.020002449
109	0x00	0.0
110	0x01	0.020002449
111	0xfe	-0.040004898
112	0x08	0.16001959
113	0x01	0.020002449
114	0xfe	-0.040004898
115	0x00	0.0
116	0xfe	-0.040004898
117	0xff	-0.020002449
118	0xf9	-0.14001714
119	0x05	0.10001224
120	0x00	0.0
121	0xff	-0.020002449
122	0xfa	-0.1200147
123	0xf9	-0.14001714
124	0xf5	-0.22002694
125	0x01	0.020002449
126	0xf9	-0.14001714
127	0xf4	-0.2400294
128	0x03	0.06000735
129	0x00	0.0
130	0x00	0.0
131	0xfe	-0.040004898
132	0x09	0.18002205
133	0xfe	-0.040004898
134	0x00	0.0
135	0xfe	-0.040004898
136	0xff	-0.020002449
137	0x02	0.040004898
138	0x02	0.040004898
139	0x00	0.0
140	0x09	0.18002205
141	0xf7	-0.18002205
142	0xfe	-0.040004898
143	0x03	0.06000735
144	0x07	0.14001714
145	0x00	0.0
146	0x01	0.020002449
147	0x02	0.040004898
148	0xff	-0.020002449
149	0xff	-0.020002449
150	0x02	0.040004898
151	0xf5	-0.22002694
152	0x0a	0.20002449
153	0x01	0.020002449
154	0x04	0.080009796
155	0xfe	-0.040004898
156	0xfe	-0.040004898
157	0x00	0.0
158	0xf4	-0.2400294
159	0x04	0.080009796
160	0xff	-0.020002449
161	0xfe	-0.040004898
162	0xff	-0.020002449
163	0xfa	-0.1200147
164	0xfe	-0.040004898
165	0x01	0.020002449
166	0xf9	-0.14001714
167	0xfb	-0.10001224
168	0x04	0.080009796
169	0x01	0.020002449
170	0xff	-0.020002449
171	0x04	0.080009796
172	0x07	0.14001714
173	0xfe	-0.040004898
174	0x02	0.040004898
175	0x01	0.020002449
176	0x02	0.040004898
177	0x04	0.080009796
178	0x00	0.0
179	0xff	-0.020002449
180	0x0b	0.22002694
181	0x00	0.0
182	0xff	-0.020002449
183	0x03	0.06000735
184	0x06	0.1200147
185	0x01	0.020002449
186	0x00	0.0
187	0x01	0.020002449
188	0x00	0.0
189	0x02	0.040004898
190	0x01	0.020002449
191	0xff	-0.020002449
192	0xfd	-0.06000735
193	0x00	0.0
194	0x02	0.040004898
195	0x01	0.020002449
196	0x00	0.0
197	0x00	0.0
198	0xfd	-0.06000735
199	0x05	0.10001224
200	0xfe	-0.040004898
201	0xff	-0.020002449
202	0xfd	-0.06000735
203	0xf9	-0.14001714
204	0xf1	-0.30003673
205	0xff	-0.020002449
206	0xf6	-0.20002449
207	0xf5	-0.22002694
208	0x04	0.080009796
209	0x01	0.020002449
210	0x00	0.0
211	0x02	0.040004898
212	0x0a	0.20002449
213	0x01	0.020002449
214	0xff	-0.020002449
215	0xfe	-0.040004898
216	0x02	0.040004898
217	0x03	0.06000735
218	0xff	-0.020002449
219	0xff	-0.020002449
220	0x0f	0.30003673
221	0xfe	-0.040004898
222	0xff	-0.020002449
223	0x03	0.06000735
224	0x05	0.10001224
225	0xff	-0.020002449
226	0x02	0.040004898
227	0x01	0.020002449
228	0xfe	-0.040004898
229	0xff	-0.020002449
230	0x01	0.020002449
231	0xf7	-0.18002205
232	0x00	0.0
233	0x00	0.0
234	0xfe	-0.040004898
235	0x00	0.0
236	0x01	0.020002449
237	0xff	-0.020002449
238	0xf4	-0.2400294
239	0x04	0.080009796
240	0x01	0.020002449
241	0x01	0.020002449
242	0xf9	-0.14001714
243	0xf7	-0.18002205
244	0xf9	-0.14001714
245	0xff	-0.020002449
246	0xf6	-0.20002449
247	0xfb	-0.10001224
248	0x02	0.040004898
249	0x01	0.020002449
250	0xff	-0.020002449
251	0x04	0.080009796
252	0x07	0.14001714
253	0x01	0.020002449
254	0x01	0.020002449
255	0xfe	-0.040004898

model/conv2d_1/Conv2D i1 [40, 6, 1, 30]
0	0xd7	-41
1	0xca	-54
2	0x5c	92
3	0x1e	30
4	0xfc	-4
5	0xe8	-24
6	0x91	-111
7	0xef	-17
8	0x5c	92
9	0x58	88
10	0x53	83
11	0x94	-108
12	0x1e	30
13	0x57	87
14	0x92	-110
15	0xd0	-48
16	0x4c	76
17	0x9f	-97
18	0xb5	-75
19	0xa2	-94
20	0x23	35
21	0x74	116
22	0xf1	-15
23	0xd4	-44
24	0x72	114
25	0x34	52
26	0xff	-1
27	0x90	-112
28	0xe9	-23
29	0xd9	-39
30	0xdf	-33
31	0x1d	29
32	0x0f	15
33	0x24	36
34	0x3c	60
35	0xe3	-29
36	0xb9	-71
37	0x10	16
38	0xa5	-91
39	0xc0	-64
40	0x4b	75
41	0x20	32
42	0xea	-22
43	0xdc	-36
44	0xd0	-48
45	0x57	87
46	0x93	-109
47	0x30	48
48	0x3c	60
49	0xff	-1
50	0xcb	-53
51	0x1d	29
52	0x02	2
53	0xfd	-3
54	0xa9	-87
55	0xa6	-90
56	0x3c	60
57	0xac	-84
58	0x3e	62
59	0xfe	-2
60	0x37	55
61	0x09	9
62	0x5f	95
63	0xad	-83
64	0xe9	-23
65	0xb1	-79
66	0x35	53
67	0xe0	-32
68	0xd5	-43
69	0x71	113
70	0xd4	-44
71	0x16	22
72	0xbc	-68
73	0x6c	108
74	0x81	-127
75	0x42	66
76	0x22	34
77	0x3f	63
78	0xe3	-29
79	0x3e	62
80	0x9d	-99
81	0x13	19
82	0xf6	-10
83	0x1a	26
84	0xbd	-67
85	0x16	22
86	0x34	52
87	0x9a	-102
88	0xe9	-23
89	0xd8	-40
90	0xc2	-62
91	0x90	-112
92	0x9d	-99
93	0x25	37
94	0x99	-103
95	0xc0	-64
96	0xf9	-7
97	0x9b	-101
98	0x38	56
99	0x8f	-113
100	0x00	0
101	0xe8	-24
102	0x55	85
103	0xd6	-42
104	0x06	6
105	0x9e	-98
106	0xe0	-32
107	0xee	-18
108	0x1d	29
109	0xf6	-10
110	0x16	22
111	0x98	-104
112	0x1a	26
113	0x43	67
114	0x05	5
115	0xf6	-10
116	0xc5	-59
117	0x54	84
118	0x11	17
119	0x2e	46
120	0x71	113
121	0xb8	-72
122	0xc5	-59
123	0xd0	-48
124	0xd9	-39
125	0xf5	-11
126	0x49	73
127	0x1f	31
128	0xc0	-64
129	0x58	88
130	0xf6	-10
131	0xbb	-69
132	0x3a	58
133	0x0d	13
134	0xad	-83
135	0x22	34
136	0xf6	-10
137	0x51	81
138	0xbd	-67
139	0x45	69
140	0x90	-112
141	0xab	-85
142	0x4b	75
143	0xf2	-14
144	0x53	83
145	0xae	-82
146	0x60	96
147	0xbf	-65
148	0x03	3
149	0xad	-83
150	0x08	8
151	0x67	103
152	0xd3	-45
153	0x5b	91
154	0x71	113
155	0xe1	-31
156	0x52	82
157	0x3b	59
158	0x00	0
159	0x70	112
160	0x1b	27
161	0x96	-106
162	0x4d	77
163	0x46	70
164	0xc9	-55
165	0xe1	-31
166	0xf8	-8
167	0xe4	-28
168	0x51	81
169	0xa4	-92
170	0xa9	-87
171	0x4f	79
172	0x37	55
173	0x40	64
174	0x4c	76
175	0x55	85
176	0x62	98
177	0x2f	47
178	0x98	-104
179	0xe5	-27
180	0xf7	-9
181	0xf4	-12
182	0xf8	-8
183	0x07	7
184	0xfd	-3
185	0x06	6
186	0xf6	-10
187	0xf6	-10
188	0xfe	-2
189	0xf4	-12
190	0x02	2
191	0xfc	-4
192	0x01	1
193	0xfd	-3
194	0x09	9
195	0xfa	-6
196	0x02	2
197	0xf8	-8
198	0x08	8
199	0x03	3
200	0xf5	-11
201	0xfc	-4
202	0x09	9
203	0x09	9
204	0x08	8
205	0x08	8
206	0xfe	-2
207	0x08	8
208	0xff	-1
209	0xf5	-11
210	0xfc	-4
211	0x06	6
212	0xf4	-12
213	0xf6	-10
214	0x08	8
215	0xfb	-5
216	0x00	0
217	0x00	0
218	0x0a	10
219	0x09	9
220	0x05	5
221	0xf6	-10
222	0x06	6
223	0x09	9
224	0x0a	10
225	0x09	9
226	0xff	-1
227	0xf5	-11
228	0x07	7
229	0x05	5
230	0x0c	12
231	0xf4	-12
232	0xf6	-10
233	0x04	4
234	0x0b	11
235	0xfb	-5
236	0x09	9
237	0x0c	12
238	0x03	3
239	0xf7	-9
240	0x9a	-102
241	0xf9	-7
242	0x04	4
243	0x01	1
244	0x98	-104
245	0x81	-127
246	0x00	0
247	0x0b	11
248	0x02	2
249	0x01	1
250	0x00	0
251	0x04	4
252	0x03	3
253	0x01	1
254	0xfc	-4
255	0xf5	-11

model/conv2d/Conv2D i1 [30, 10, 1, 1]
0	0x0c	12
1	0xb0	-80
2	0xf0	-16
3	0x17	23
4	0x59	89
5	0x7f	127
6	0x36	54
7	0x4c	76
8	0xac	-84
9	0x81	-127
10	0xc4	-60
11	0xa9	-87
12	0x9e	-98
13	0x67	103
14	0x04	4
15	0x5b	91
16	0xd9	-39
17	0x81	-127
18	0x2f	47
19	0x9f	-97
20	0x09	9
21	0xec	-20
22	0x2e	46
23	0x19	25
24	0x81	-127
25	0x2a	42
26	0x24	36
27	0x08	8
28	0xef	-17
29	0x1b	27
30	0x9c	-100
31	0x88	-120
32	0xcb	-53
33	0x16	22
34	0x63	99
35	0x82	-126
36	0x81	-127
37	0x0d	13
38	0xd5	-43
39	0x9f	-97
40	0xed	-19
41	0x58	88
42	0xe3	-29
43	0x79	121
44	0x9e	-98
45	0xd1	-47
46	0x9c	-100
47	0x15	21
48	0x81	-127
49	0xaa	-86
50	0x7f	127
51	0x1d	29
52	0x4b	75
53	0x5a	90
54	0xa3	-93
55	0x64	100
56	0x92	-110
57	0x08	8
58	0xae	-82
59	0x94	-108
60	0x01	1
61	0xf5	-11
62	0x0b	11
63	0xef	-17
64	0x81	-127
65	0x19	25
66	0x27	39
67	0x1c	28
68	0xee	-18
69	0x25	37
70	0xdc	-36
71	0x58	88
72	0x50	80
73	0x37	55
74	0xd2	-46
75	0x3b	59
76	0x81	-127
77	0x37	55
78	0x5a	90
79	0x6a	106
80	0x50	80
81	0xb6	-74
82	0x5c	92
83	0xa7	-89
84	0x04	4
85	0x64	100
86	0x7f	127
87	0x85	-123
88	0x90	-112
89	0x64	100
90	0x18	24
91	0x5b	91
92	0x6b	107
93	0x04	4
94	0xf6	-10
95	0xb6	-74
96	0x81	-127
97	0xdb	-37
98	0x93	-109
99	0xcd	-51
100	0x45	69
101	0xaa	-86
102	0x27	39
103	0x00	0
104	0xff	-1
105	0x81	-127
106	0xf2	-14
107	0xe8	-24
108	0xc0	-64
109	0x45	69
110	0xfb	-5
111	0xbf	-65
112	0xe4	-28
113	0x01	1
114	0xf7	-9
115	0x8a	-118
116	0x0c	12
117	0x7f	127
118	0x65	101
119	0x67	103
120	0x17	23
121	0xe9	-23
122	0x7a	122
123	0x01	1
124	0x01	1
125	0xa5	-91
126	0x0a	10
127	0xf3	-13
128	0xf6	-10
129	0x7f	127
130	0x86	-122
131	0x17	23
132	0xe2	-30
133	0x1e	30
134	0x04	4
135	0x81	-127
136	0xa0	-96
137	0xb3	-77
138	0x1a	26
139	0xf4	-12
140	0xef	-17
141	0x26	38
142	0x2f	47
143	0x0d	13
144	0xeb	-21
145	0x48	72
146	0x7e	126
147	0x7f	127
148	0x0b	11
149	0xa6	-90
150	0x47	71
151	0xe5	-27
152	0x43	67
153	0xc0	-64
154	0x81	-127
155	0x09	9
156	0x2a	42
157	0x3e	62
158	0x35	53
159	0xeb	-21
160	0x7c	124
161	0x7f	127
162	0xa7	-89
163	0x7a	122
164	0xfe	-2
165	0x6f	111
166	0x38	56
167	0x02	2
168	0x5a	90
169	0x2f	47
170	0x9c	-100
171	0x49	73
172	0xd5	-43
173	0x7f	127
174	0x2d	45
175	0xb7	-73
176	0xfc	-4
177	0x40	64
178	0x05	5
179	0x5c	92
180	0x7e	126
181	0xe9	-23
182	0x8c	-116
183	0xf2	-14
184	0xf4	-12
185	0x1b	27
186	0x11	17
187	0x81	-127
188	0x0a	10
189	0xdc	-36
190	0x53	83
191	0xa9	-87
192	0x69	105
193	0xea	-22
194	0xfa	-6
195	0xeb	-21
196	0x81	-127
197	0x25	37
198	0xc1	-63
199	0x1d	29
200	0xab	-85
201	0xef	-17
202	0xbd	-67
203	0xbd	-67
204	0xff	-1
205	0x7f	127
206	0x79	121
207	0xc7	-57
208	0xd0	-48
209	0x20	32
210	0xfd	-3
211	0x81	-127
212	0x27	39
213	0x36	54
214	0x7e	126
215	0x4d	77
216	0x40	64
217	0x22	34
218	0x4d	77
219	0x99	-103
220	0x0f	15
221	0x36	54
222	0xfc	-4
223	0xdc	-36
224	0x81	-127
225	0xef	-17
226	0x09	9
227	0xd0	-48
228	0x13	19
229	0x1c	28
230	0x10	16
231	0x5a	90
232	0xd1	-47
233	0x03	3
234	0xee	-18
235	0x3a	58
236	0x13	19
237	0x47	71
238	0x81	-127
239	0x3a	58
240	0xec	-20
241	0xa2	-94
242	0xe3	-29
243	0x3b	59
244	0x81	-127
245	0x3f	63
246	0x4a	74
247	0xeb	-21
248	0x60	96
249	0xfc	-4
250	0xf2	-14
251	0x42	66
252	0x1b	27
253	0xe2	-30
254	0x81	-127
255	0x37	55
